logs/lightning_logs/version_1/checkpoints/epoch=16-step=106250.ckpt (torch, 504980 bytes, 20 tensors)

model.conv1.weight f4 [6, 3, 5, 5]
00000000: 9602 50bb 9121 be3d 45b6 833e 24da 963e
00000010: ab97 493e 9b92 14be ab09 173e a8ca dc3d
00000020: a846 3e3e 5e77 113d 28a5 2fbe 60ea fb3e
00000030: 65a2 cebd d452 8ebe 495c bb3e 39bd 9e3c
00000040: 47dd 583f 4d16 a5be 1d61 6abf 3a8c 333f
00000050: 7cd2 a1bd 060d 163f 2312 e4be 5c84 39bf
00000060: df49 cc3e 74c2 02bd 8d21 96bd f229 c9be
00000070: b0ab 7ebe ba42 aabd d7c9 8c3e bc71 6dbd
00000080: f7e2 2bbe 4788 e9be 2bfe f3bd db6c 863e
00000090: c00c ce3e 8583 2fbf 674e 6ebf 7023 c53e
000000a0: c408 463e 4902 2b3f 7740 68bf 8b54 8dbf
000000b0: 6104 563f 6c99 9e3c 53ae f03e 0ddc 58bf
000000c0: 93e0 6cbf 0b5d 053f c331 3fbe 6125 b13d
000000d0: b4c2 efbc 2b23 1e3e 4bf0 f8bd 0fdb a5bd
000000e0: f4cf c8bc f60e b3bd 2c2c 083c e076 babb
000000f0: 44f4 033d cd50 d63e 9315 7fbe e28f 11bf
00000100: 7706 033f 0672 183d e7fa 343f e3ff 09bf
00000110: 4369 58bf 60b9 333f 53eb a23e 5281 383f
00000120: d8b1 96be 051c fbbe 1f3d 0f3f 19c2 af3e
00000130: a6d0 3b3d 7f29 b8be 0852 32be c8ba 373e
00000140: 9042 d13d a88e 00bf 95e3 cebe cdb0 523e
00000150: d335 173e eb23 93be 650e b3be 9fc5 2a3e
00000160: 8c58 e73e 4082 0e3e 86d8 b5be 980e 41be
00000170: 26fa 563e e036 6b3d e643 773d 2016 a73d
00000180: 9060 e83d 9ca4 d5bd 8b43 bebd 5ee4 973c
00000190: d41b b23e d4a2 403d fd1b 80be 987f e23c
000001a0: 2156 323e 8c8b 973c 7087 e8be 9674 6cbe
000001b0: ae4d 903e 3a4c ab3e 6b26 8bbe 3816 babe
000001c0: 48ec fc3c 208e a53e ea0c 5d3d 128d 83be
000001d0: b3c1 41bd e517 7b3e 7fc9 6a3e 18bc d03d
000001e0: 5b99 cf3d 9e95 fb3d 5024 3f3d c313 64be
000001f0: 00b9 dd3d d831 0cbe 9680 18bc 3552 67be
00000200: 94eb c6bc feea 1f3d 0e2c 35bd 3c3d edbe
00000210: 0917 08be 03a8 dd3e 3d60 4f3e 02a5 fabe
00000220: 5757 e6be 571c 213e 06ff 013f 903d 293e
00000230: 73da 21be c60a 283e 1cb2 9e3e 4b30 383e
00000240: acbf a3bd af00 9f3d bcaa 363e 559d ac3d
00000250: 1c96 89bb 9d76 7b3e 90a9 903e da1e 993d
00000260: 54ae 04be e9e8 e1bd 3ad9 edbc 6137 843e
00000270: 9d54 7d3e 6c64 4b3e eaf7 873e 0612 8b3e
00000280: 873c 9abd 31bd 333f aa40 bb3f f704 053f
00000290: 628f 9ebe 7907 03bf 868b 59bf 2e2c 14bf
000002a0: 05b4 1cbf 84bb bcbe 30ca 913d 2d35 39be
000002b0: bef7 b5be eadd a5be 1a39 b73e b8fc 7f3e
000002c0: d05b bdbe 405c d1be 2d20 23bd 85b4 febc
000002d0: db91 c7ba 97c7 3e3e 65ee 1e3e 49fe dc3e
000002e0: ee97 8f3e 30e8 13be 3eac 4f3f 17c2 ba3f
000002f0: 08e4 373f 4944 78be 210f 87be 202b 63bf
00000300: af3a 30bf 1ed1 30bf beab 17bf 81aa 433e
00000310: 01e3 babe 05ea 05bf 1155 bcbe fbb0 b63e
00000320: 4fb2 dcbd 3cb7 efbe 2186 40bf 694b 92be
00000330: d76c b93c 2060 f3bc 02d0 4ebe 4794 bfbe
00000340: 82a8 82be 7892 103e 0629 63be bd1e 373f
00000350: 32ca aa3f 7288 0a3f 5dba 1ebe f3ad af3d
00000360: 5e33 b4be fe39 bfbe 9b1a 55be f25b 2bbd
00000370: c8fe 163f 372f a63e 729a fcbc 8256 903e
00000380: 0154 223f 2ac5 253e 6fe7 85bc e14c 303e
00000390: dd44 43be ca59 893e 8bb6 e3bd d256 acbe
000003a0: a947 3abe 1c5c 26be 62f1 1cbe 8b5e a7be
000003b0: 52eb d6be e588 f6be d32a a2be 013c febd
000003c0: a8db 50be 1cd9 d2be 5198 c7be c873 29be
000003d0: b2e3 843d acdd 20be 97bf c2be 97dc 60be
000003e0: 50f2 24bc 42e5 983e fb85 d43c cab0 c0bd
000003f0: d32b 193d 80e2 eebc 8510 47be b8ca 833d
-0.0031739823 0.09283746 0.25724998 0.29463303 0.19686763 -0.1450905 0.14749782 0.10780841
0.1858164 0.035514228 -0.17152846 0.4920225 -0.10089568 -0.27797568 0.36593845 0.019377338
0.8471264 -0.32243577 -0.91554433 0.70135844 -0.07901475 0.5861362 -0.44545087 -0.7246759
0.3990011 -0.031923726 -0.07330618 -0.39289814 -0.24870181 -0.08313508 0.27497742 -0.057969794
-0.16785799 -0.45611784 -0.11913713 0.26254925 0.40244102 -0.6856006 -0.9308838 0.385036
0.19339281 0.6680036 -0.90723366 -1.1041425 0.8360043 0.019360267 0.47008 -0.8471077
-0.92530173 0.520951 -0.18671326 0.086497076 -0.029267646 0.15443103 -0.12155207 -0.08098423
-0.024513222 -0.08743088 0.008311313 -0.0056904405 0.03221537 0.4185852 -0.24910574 -0.5686017
0.5118174 0.037218116 0.70695347 -0.5390608 -0.84535617 0.70204735 0.31820163 0.7207233
-0.2943256 -0.49044815 0.5595264 0.34327772 0.04585328 -0.3596916 -0.17414105 0.17942345
0.10217774 -0.50217676 -0.40408006 0.20575257 0.14766626 -0.2873834 -0.3497192 0.16676949
0.45184743 0.13916874 -0.35516757 -0.18853223 0.20993862 0.05742538 0.060367487 0.08158517
0.11346543 -0.10431787 -0.092902265 0.018541511 0.34786856 0.047030285 -0.25021353 0.027648732
0.17415668 0.018499158 -0.4541583 -0.23091349 0.28184265 0.33456594 -0.27177748 -0.36345077
0.030874386 0.32334995 0.053967394 -0.25693566 -0.047303867 0.24520834 0.22928427 0.10192126
0.10136672 0.122843966 0.04666549 -0.22273163 0.108263016 -0.13690889 -0.009308001 -0.22589953
-0.024282254 0.039042465 -0.044231467 -0.4633578 -0.13290037 0.43292245 0.20251556 -0.48954016
-0.4498851 0.15733467 0.5077976 0.1652739 -0.15805988 0.1641036 0.30995262 0.17987172
-0.07995543 0.07763802 0.17838567 0.08428446 -0.0041988026 0.24556966 0.28254366 0.074765876
-0.12957126 -0.11030752 -0.029034246 0.258235 0.24739309 0.19862527 0.2655633 0.27162188
-0.07531076 0.7021056 1.4629109 0.519607 -0.30968767 -0.5118328 -0.8497852 -0.5787991
-0.6121219 -0.36861813 0.07118642 -0.18086691 -0.35540575 -0.3239587 0.35785753 0.24998748
-0.3698411 -0.40890694 -0.039825607 -0.031091938 -0.0015225963 0.18630825 0.15520628 0.43162754
0.280456 -0.14444041 0.81122196 1.4590482 0.71832323 -0.24244799 -0.2637873 -0.8873768
-0.68839544 -0.6906909 -0.5924643 0.19108011 -0.36501315 -0.5231021 -0.3678365 0.356819
-0.10776197 -0.46819484 -0.75204664 -0.28573158 0.022634907 -0.029708922 -0.20196536 -0.37417814
-0.25519186 0.14118373 -0.22183618 0.7153128 1.3342955 0.5411445 -0.1550078 0.085781
-0.3519544 -0.37348932 -0.2081093 -0.041835733 0.58982515 0.32457897 -0.030835364 0.28191
0.6340943 0.16188493 -0.016345708 0.17216827 -0.19069238 0.26826316 -0.11118802 -0.3365999
-0.18191399 -0.16246074 -0.15326455 -0.32689318 -0.4197641 -0.48151317 -0.31673297 -0.124137886
-0.20396292 -0.41181266 -0.38983396 -0.16548073 0.06488742 -0.15709561 -0.38036796 -0.21959148
-0.010067537 0.2986241 0.025942793 -0.0940872 0.03739531 -0.029160738 -0.19439895 0.0643515

model.conv1.bias f4 [6]
00000000: 6ef3 4fbe 7d3e 573d f41e f7be 1b27 403f
00000010: 516d 82bd f805 1b3f
-0.20307705 0.052549828 -0.48265803 0.7505967 -0.06368507 0.6055598

model.conv2.weight f4 [16, 6, 5, 5]
00000000: 69a4 b53e 756a 5cbd eaa2 72be 993c e8be
00000010: e9f3 91be 6d2f 093e c8b7 e23e 369d efbd
00000020: 4fde fbbe 9728 c4be ed94 25bd edd2 073f
00000030: fc7c 3d3e 42df 0abf faad 03bf 2ee9 fc3b
00000040: 5835 ae3e b0ab 923e 1e83 c9be fd8c 0fbf
00000050: 8e19 303e b4dd 973e eb17 043f 02bf 21bd
00000060: a40d d8be 8a17 993d f5be 8b3b 7f5e ac3d
00000070: f9b9 883d d006 03be 6cdf 4c3d 65a6 52be
00000080: 3a61 383e ba49 cabd e447 40be 9661 7a3d
00000090: 2888 03be c7b4 cbbc d293 ae3d 534f 67bd
000000a0: 38b7 223d c801 20be a80d 55be 4c0f 903c
000000b0: ca54 fcbd 58f5 203e be09 a13e 6aac d5bd
000000c0: db85 033e 64df 673d 953e 2b3d ef46 893e
000000d0: 1272 9f3b 8285 893c 7765 5cbd cfbd 65bd
000000e0: 13c8 cebd 7782 943d 3e00 c03d 9d5a f73d
000000f0: f87c 173e a17e ddbe 7182 c1be a19b 3b3e
00000100: 3bb4 783e e489 67bc 92f8 81be 2d9a 05bf
00000110: 08fc 9abd 1382 8f3e b57b cabe eec0 1fbe
00000120: a2da bebe 7a83 84be 4c22 ddbd 639b 393e
00000130: e82c 453e a2d2 5abc 9116 59bc c5b0 d83c
00000140: 83d0 33bd 196c 9bbd 78e3 5d3c 5bf9 86bd
00000150: 8b44 b63c 6895 ac3d ba95 003d 7316 033d
00000160: 5b46 2c3c b324 93bd cf4b 083e 614e f43d
00000170: b830 88bd 4ab0 f3bc d49a 4bbd debc 86bb
00000180: 8509 a03d 3579 d2bc 7ab4 e4bd 589d 28be
00000190: ee19 493e 6d1b 7ebd 6369 5cbe d291 a6bd
000001a0: e424 f73d b875 c83e 035b b6bd ba58 9cbe
000001b0: 8791 6dbe cb0a 5ebd fd1f 873e e22c b73e
000001c0: ae45 21be fd57 6cbe abb9 acbd 52e7 3dbc
000001d0: 5e5f 8d3e 9e13 87bc b105 7fbe fb6f 89be
000001e0: 5b1b 81bc 2b77 03be 8db7 7a3d 38b1 323e
000001f0: 8078 1c3d c081 d43d ccad 203d 71d8 e23d
00000200: add4 1c3e 43dc 2d3d 6ed7 9cbd d99f 90bd
00000210: 0d6f a5bd 72f8 5e3e 618d 023e 72f3 5bbe
00000220: c416 37be dfdb 55bd 6f2c d43d c70d a23d
00000230: 407c 593d 9350 2fbd 843d 8abe f2e2 25bd
00000240: 6a24 003e 02a5 6b3e e879 2e3e 08f8 13be
00000250: 66af bfbd 978e 2dbd c5dc 98be eafa 0abe
00000260: 230b c43c d950 8a3e fb5f 04be ff52 2abe
00000270: cbce f1bd d4ba 3abc 12ea 063f dc60 fb3a
00000280: 4c55 4bbe b4c6 fdbc a29b 0b3d f4fb 093f
00000290: 6525 003e eec7 d8be 938a 96bd ab63 9b3d
000002a0: 2634 103f c2ba 003d 891c 1fbf 0ead 16bf
000002b0: 1daa d93d c222 3e3e 21c3 3c3b 2162 eabc
000002c0: 7df8 9b3d 5228 c8bd b703 0dbd 07c0 4ebc
000002d0: a393 abbd 7ad9 58bd 5d82 65bd 4b00 cabd
000002e0: dc5a b83d ea50 cfbc c3af 41bb 5292 e43a
000002f0: 09af a73b 619a 6ebd 4821 2f3d 1b6c 0dbe
00000300: 71d1 dd3d f72d 503c d1ae 28be 82cc 89be
00000310: 9c8a 9bbe 8b9a 153e 4e8b 393e 18e5 46be
00000320: fcb2 aa3e 2b27 483e f65c be3d c209 50be
00000330: e614 6dbe 6abe 203e 9f0c 833e fe2a 323e
00000340: d02c 2ebe b62c f2bc fe9e 4dbd 3a9b 4f3d
00000350: 8a90 a7bd f745 16be f925 c4bd 9600 0ebe
00000360: 2f8e 0dbe 4fa0 03bf 105c 09bf 22b8 bcbe
00000370: a8b0 ca3d 4561 75bd 7454 01be 48ce 41be
00000380: a5d0 c2be daf3 043e 5635 743b 5101 84bc
00000390: 3849 f4bd b04b 443e 3d5a 903d f1b5 843b
000003a0: 4792 fdbd 1e84 9dbd 902a 863d bdd8 293e
000003b0: f49d 10bb 4fd7 1f3c 80f6 78bd c3ee 713d
000003c0: 06f6 133e e802 263e 47cb 873c d667 963b
000003d0: 06d0 12bc e823 36be 7c21 50be fa7e a4bd
000003e0: 163f 863c ba49 6cbe 4671 473e 69f5 0b3e
000003f0: 814d 223e c616 d83d 90f1 a23d 6d1c db3d
0.35476997 -0.053812463 -0.2369496 -0.45358732 -0.285064 0.13396998 0.4428084 -0.116999075
-0.49193045 -0.38312218 -0.04042523 0.5305622 0.18504709 -0.54246914 -0.5143734 0.007718227
0.34025073 0.28646612 -0.39357847 -0.56074506 0.17197248 0.29661334 0.51598996 -0.0394888
-0.42197907 0.07475193 0.004264707 0.08416461 0.066760965 -0.12795568 0.05001776 -0.20571287
0.18005839 -0.098773435 -0.18777424 0.06112822 -0.12844908 -0.024866475 0.08524288 -0.056472134
0.039725512 -0.1562568 -0.2080599 0.01758542 -0.1232086 0.15718591 0.31452745 -0.10433276
0.1284403 0.056609526 0.04180773 0.2681193 0.004865893 0.016787294 -0.053807702 -0.05608922
-0.10096755 0.07251447 0.09375046 0.1207783 0.14793766 -0.43260673 -0.3779483 0.18321086
0.24287502 -0.014131997 -0.25384957 -0.5218838 -0.075676024 0.28028926 -0.39547506 -0.1560094
-0.3727618 -0.2588156 -0.10797557 0.18125682 0.19255412 -0.013355883 -0.013250009 0.026451478
-0.043900024 -0.07588977 0.013543002 -0.065905295 0.02224948 0.084269345 0.03139279 0.03200383
0.010514821 -0.07184734 0.13310169 0.11929012 -0.06649917 -0.029747147 -0.049708202 -0.00411187
0.07814316 -0.025692562 -0.11167236 -0.16466272 0.19638798 -0.062037874 -0.21524577 -0.08133282
0.12067583 0.39152312 -0.08904078 -0.30536443 -0.23200046 -0.05420951 0.26391593 0.3577643
-0.15749237 -0.2308044 -0.08433851 -0.011590796 0.27611822 -0.016488846 -0.24904515 -0.26843247
-0.015760114 -0.12838428 0.061210204 0.17450416 0.038200855 0.1037631 0.039228246 0.11076439
0.15315504 0.042446386 -0.076582775 -0.070617385 -0.08077822 0.21774462 0.12749244 -0.21479586
-0.17879778 -0.05221164 0.103600375 0.07912784 0.05309701 -0.04280145 -0.27000058 -0.040499635
0.12513891 0.23012164 0.17038691 -0.14450085 -0.093596265 -0.042372312 -0.29855934 -0.13572279
0.023931092 0.27014807 -0.12927239 -0.16633223 -0.11807021 -0.011397082 0.5270091 0.0019178647
-0.19856757 -0.030978538 0.03408397 0.53900075 0.12514265 -0.42340034 -0.0735065 0.075873695
0.5632957 0.031428106 -0.62152916 -0.5885781 0.1062815 0.18567947 0.002880283 -0.028611245
0.07615755 -0.097733155 -0.03442737 -0.012619025 -0.08377769 -0.052941777 -0.056032527 -0.09863337
0.09001705 -0.025307138 -0.0029554225 0.0017438626 0.0051173014 -0.058252696 0.04275635 -0.1381077
0.108309634 0.012706271 -0.16472937 -0.2691384 -0.30379188 0.14609735 0.18119547 -0.1942333
0.3333968 0.19546191 0.09295075 -0.20316222 -0.23152503 0.15697637 0.25595567 0.17399213
-0.17009282 -0.029562335 -0.050200455 0.050685145 -0.081818655 -0.14675127 -0.09577555 -0.13867411
-0.1382377 -0.51416487 -0.536561 -0.36859232 0.09896976 -0.059907217 -0.12629873 -0.18926346
-0.38049808 0.12983647 0.0037263236 -0.016113909 -0.11928028 0.19169497 0.070484616 0.0040500094
-0.12381416 -0.07691215 0.06551087 0.16586585 -0.0022066804 0.009755923 -0.060781956 0.05906559
0.14449319 0.16212046 0.016576422 0.004590015 -0.008960729 -0.17787135 -0.20325273 -0.08032031
0.016387504 -0.23075 0.19476804 0.13667835 0.15849878 0.10551219 0.07956231 0.10698781

model.conv2.bias f4 [16]
00000000: c67d e5be 00b5 7b3f 4797 5ebe cf14 443f
00000010: 847b 1cbf 5195 e6be f651 543f 5bb5 5dbf
00000020: 62da 91be 557e e73f 1b01 9ebf 2c78 623d
00000030: 97af c73f d708 98bf 3846 04bb 5399 ec3e
-0.4482252 0.9832306 -0.21737395 0.7659425 -0.6112597 -0.45035794 0.8293756 -0.8660485
-0.28486925 1.8085428 -1.2344087 0.055290386 1.5600461 -1.1877698 -0.0020183455 0.46210727

model.fc1.weight f4 [120, 400]
00000000: f18c 4d3d 7427 213d 26dc 7f3c 3087 13bd
00000010: 9183 73bc ca64 963c 250d 03bd 3572 65bd
00000020: 6368 52bd 969d 49bd 65f2 cbbc 72b6 be3c
00000030: 6152 0bbd f936 84bc 236e bc3c 786f 1d3d
00000040: ac62 dabc b917 963c a865 19bd 26f4 21bd
00000050: b8b3 3b3d 8e90 e7bc 246e bebc f83a f23b
00000060: 329b 423c d1f7 0c3d d47a 35bd 8030 1a3d
00000070: 787a 4c3c 86c7 8b3c 5fdb 293d c031 bb3c
00000080: 1138 95ba 5aa2 863c d3df e73c e231 293b
00000090: 36fc ec3b 3ef5 07bd 1338 92bc 23ed 063c
000000a0: 5571 6b3c b568 1dbd 523e 8bbb e8fa 08bd
000000b0: f17f be3b beca b9bb f7f0 ffbc c2c9 61bd
000000c0: 0f32 39bb 1dd8 043d f793 85ba 8071 e8bc
000000d0: 3fb3 9337 d09f f6bc 0541 7bbc 4803 cdbc
000000e0: 145f e5bc 1aa2 143c 75ce 1abd 9316 88bc
000000f0: 98b4 e2ba ff87 82bc f263 6dbd 0305 5ebd
00000100: b680 83bd f667 983c 48e0 003c b8bf 99bc
00000110: b552 6abc 6d03 5b3c 73e0 093d 6831 cfbc
00000120: f3f9 f03b 5262 30bd 2c1c 1bbd dec0 91bc
00000130: 3cd7 cabc 0e1b 51bc 2ad4 d5bb 791f 84bb
00000140: af3a 85bc cbb3 a33c 2ba2 6b3b dd14 803c
00000150: da14 12bc e992 1b3d e3ee 71ba 7137 ecbc
00000160: de59 353c 1994 693b c18d cbbc a29d 0a3d
00000170: b405 fdbc 8eb9 04bd 2730 70bc 3f85 763c
00000180: 48eb 28bd 3abc a53c 2b82 fb3a cd82 eb3b
00000190: 2ba2 06bd ac57 44bc 61f6 36bc e25d c03a
000001a0: b4d9 e33b f0b8 01bd 41be 493d 0090 233c
000001b0: bf73 1d3d 5870 ebbc e873 2e3d 556d 203c
000001c0: 3169 b13c 1297 8bbb fdac 1abd c796 9abc
000001d0: b1c6 c23c 67aa 7b3c 305e 8ebc c795 67bd
000001e0: 9c22 3f3d 800d f33c 4b54 97bc 3065 dd3c
000001f0: ae15 96bc ae69 2a3d 2b14 92bd 2214 59bd
00000200: 179f e9bc 9f5e c0bc b9fa 35bc 189a d7bb
00000210: 01d9 3dbd 3618 02bd d174 1fbd 7a18 433d
00000220: 0c4b d23c 11ad 783b d37b 1ebc 8216 ce3b
00000230: 7a1e 3ebd 6264 71bd 06fc 0a3d b488 e7bb
00000240: ff89 93bc 4a54 163d 17f2 91bb 2dd9 c6bc
00000250: 2e5c 35bd 5a1d f93c 373d 27bd 792d e73b
00000260: dc51 963c 57d1 fc3b a13c 64bc 4399 bfbc
00000270: 65e1 08bb fdd5 b3bc ae04 033c c6a5 393d
00000280: e6f6 5fbc 5d43 803d 3c89 1a3d b1ad a7bc
00000290: dc9a 693d 35cb 473c 1f93 99bc d973 c1bb
000002a0: 3207 a23d 1c6e e83c e158 f73c 993c 4b3d
000002b0: ac7c cbbb d212 aa3c d8de 45bc 64af 37bd
000002c0: 7a5e 543c 949c 4c3c bb8c f3bc 3de7 b739
000002d0: 921e 123b d869 cd3c 6ca2 2bbd 5a60 b33c
000002e0: 3c98 ffbc fde9 503d a739 3cbd c635 aa3c
000002f0: f200 b93c 03c3 fbbc 331f e83c 557e a83a
00000300: 5589 493c 673e 2b3c ea13 c6bc ee99 5e3d
00000310: 9b3f 0ebd f10a 483c 997d 1fbd 5e5d 783c
00000320: c0d8 923a ea90 5dbc eb5c 3f3c c054 073d
00000330: f848 ac3a a060 c53a f45b 30bd a8b7 8abc
00000340: ea25 02bd 7c0e 543d a117 5dbd 31f2 d43b
00000350: 00c3 c0bc 78e0 10bd 304a 833b 071a 103d
00000360: bab5 983c e31f fa3c bdfd 4a3b 193d cc3c
00000370: 0005 223d 80ff 233d 8484 433c 5081 453d
00000380: b5d5 00bd 2200 333c 2b62 68bd 3824 3ebd
00000390: 3da0 ca3a f853 9cbc 0025 cebc 3074 ea3c
000003a0: b729 a83b 5381 6f3c 8741 11bc 383a c13c
000003b0: 376a 7fbc 44a4 a63b cf31 263d 4ae2 8439
000003c0: 7fb6 e5bc e64d b2bc 7afa e53a 65d0 7bbb
000003d0: 357a 0bbd 3e01 ad3c 4523 e1bc d9d7 10ba
000003e0: 94ae d5bc 9baf 13bc 76d3 273a 099c d9bc
000003f0: d63a e8bc 19f5 253c 9405 1d3a 3ce4 cc3c
0.05018324 0.039344266 0.015616452 -0.036017597 -0.014862911 0.018358607 -0.031994957 -0.05601712
-0.051369082 -0.04922255 -0.024895856 0.023280356 -0.03401411 -0.016139494 0.023001736 0.038436383
-0.026658379 0.018321859 -0.037450463 -0.03953948 0.04582569 -0.028267171 -0.023245879 0.0073922835
0.011877822 0.034416024 -0.04430659 0.03764391 0.012480371 0.017062914 0.041468974 0.022850871
-0.0011384507 0.016434837 0.02830497 0.0025817086 0.0072322143 -0.033192866 -0.017849004 0.008235249
0.014370282 -0.038429935 -0.0042493725 -0.033442408 0.0058135916 -0.0056699207 -0.03124283 -0.055124052
-0.0028258597 0.032432664 -0.0010191192 -0.028374434 1.7607234e-05 -0.030105501 -0.015335326 -0.025025979
-0.027999438 0.009071851 -0.03779455 -0.016612327 -0.0017296253 -0.015933989 -0.057956643 -0.054204
-0.06421034 0.01860426 0.007865973 -0.018768176 -0.014301945 0.013367516 0.033661317 -0.025292113
0.007354015 -0.043062516 -0.037868664 -0.017792162 -0.024760835 -0.012762798 -0.006525536 -0.004032072
-0.016263334 0.019983193 0.0035954814 0.015634948 -0.008916104 0.0379819 -0.00092290173 -0.02883503
0.011068789 0.0035641252 -0.024847867 0.033841737 -0.030886509 -0.03240352 -0.014659918 0.015046417
-0.041240007 0.020231355 0.0019188573 0.0071872235 -0.0328695 -0.011983793 -0.01116714 0.0014676417
0.0069534425 -0.03167051 0.049253706 0.009983063 0.038440462 -0.028740093 0.042591006 0.009791692
0.021656604 -0.0042599523 -0.03776263 -0.018870724 0.023776384 0.015360451 -0.017378896 -0.056539323
0.046663865 0.029669523 -0.018472811 0.027025789 -0.018320885 0.04160469 -0.07132753 -0.052997716
-0.028518243 -0.023482619 -0.01110714 -0.0065796487 -0.04634953 -0.03176137 -0.038929764 0.047630765
0.02567055 0.0037944952 -0.009673077 0.0062893042 -0.046415783 -0.058933623 0.033931755 -0.007065857
-0.018010138 0.036701478 -0.004453908 -0.02427348 -0.044277363 0.030409504 -0.040829863 0.0070549813
0.01834958 0.007715385 -0.013930471 -0.02338851 -0.0020886299 -0.021952624 0.007996721 0.04532411
-0.013669705 0.062628485 0.037728533 -0.020468565 0.05703245 0.012194444 -0.01874691 -0.0059037027
0.07911529 0.028372817 0.030193748 0.049618337 -0.0062099304 0.020760927 -0.012077056 -0.044845
0.012961978 0.012488503 -0.029730191 0.00035076766 0.0022296053 0.025074884 -0.041902944 0.02189653
-0.03120052 0.0510044 -0.04595342 0.020777594 0.022583459 -0.030732637 0.02833519 0.0012855033
0.012300809 0.01045189 -0.024179418 0.054346018 -0.034728628 0.01220964 -0.03893814 0.015158979
0.0011203513 -0.01352332 0.011679868 0.03303981 0.0013144305 0.0015058704 -0.043056443 -0.016933277
-0.03177444 0.051771626 -0.053977612 0.006498598 -0.023530483 -0.03537032 0.0040066466 0.03518107
0.018641341 0.030532783 0.0030973994 0.024931477 0.03955555 0.040038586 0.01193345 0.048219025
-0.031453807 0.010925325 -0.056734245 -0.04642126 0.0015459132 -0.019083008 -0.025164127 0.028619856
0.005131926 0.014618236 -0.008865721 0.023587331 -0.015589288 0.0050855 0.040574845 0.000253456
-0.028041122 -0.02176566 0.0017545961 -0.0038423773 -0.034052093 0.021118756 -0.027482638 -0.0005525328
-0.026084222 -0.009014036 0.00064020546 -0.026563661 -0.028348368 0.010129237 0.0005989906 0.025011174

model.fc1.bias f4 [120]
00000000: 7953 97bc 968d c23d 5f77 a0bc fa59 383e
00000010: 87ef ffbd d61d 99bd 5f0a 73be e59d 073e
00000020: 0e49 16be bf07 293e 39ee e03c 8368 0d3e
00000030: ef71 ad3b daec 8cbd 04cb 7fbd b037 6cbb
00000040: 95c9 c4bd f0e5 f4bc 601b 82bc 8ecb 02bd
00000050: c2ed d0bd 1d18 3fbe 2554 993b dd26 7a3b
00000060: e229 7a3e e655 7abd 1ed8 8f3e dd8c 28bd
00000070: 27b6 5a3e f9e9 9a3d 3692 393e ced3 fa3d
00000080: 1bf9 8dbd f247 ac3e 39b6 1dbd 8a79 4d3d
00000090: 1e3d 28be 1210 0b3e fa04 f23d 1dba bdbd
000000a0: 0c35 643e 4a1a 123d 0228 acbc 4f09 27be
000000b0: bff7 15bd ea45 08be ac2d 61bc f81a 1cbe
000000c0: 9b40 783e a12b debe 5e99 0b3e 6513 863e
000000d0: 0107 4a3d 2b35 47be 10dd a43d 0367 30be
000000e0: f911 a3bd 8ea7 b23d 60d2 f43e e69f 5c3d
000000f0: dfed 833d c09a d5bd d5f8 323d 1fa3 b73c
00000100: b13d 83bc a284 dbbb 094a 3fbd c172 23be
00000110: 93a0 9b3c fe43 cd3d 0535 34be 1f92 ca3e
00000120: 6690 3f3e 59e7 643c 6d73 e23d 21a1 60bd
00000130: 5116 c2bc 112e 773e 3643 0dbd a27d 72be
00000140: 407f e73e 9d10 84bd 04f6 033e e1ab 25be
00000150: a858 e53d 158e 60be 9324 a7bd a9e4 5fbd
00000160: af5b fa3d 76ea 62bb f804 b1bc 1824 873b
00000170: 81e7 3b3e 68bd 0d3c 030b 563c 07f4 793e
00000180: d462 bebe cc4b 953e 76c3 9c3e 7aca d83d
00000190: 521e 1fbe 1f49 863e aa0e dfbd 1338 b23d
000001a0: f4d7 723e 8ae2 88be 5603 693b 6a46 04bc
000001b0: b08c 403d 8ff0 64be 5fe9 8b3d 628a 1abe
000001c0: 04ed 0c3b f417 373e 5271 1b3e ad01 31bd
000001d0: a500 30bd d5d0 203e ef6b 34be 8e66 67be
-0.01847242 0.094996616 -0.01958817 0.18003073 -0.12496858 -0.07476394 -0.23734425 0.13243826
-0.14676306 0.16506861 0.027457343 0.138094 0.005293123 -0.06881113 -0.06244947 -0.0036043935
-0.09608761 -0.029894799 -0.015882194 -0.031932406 -0.10201599 -0.18661542 0.0046792203 0.0038170137
0.2443004 -0.061117075 0.28094572 -0.041149963 0.21358548 0.07564158 0.18122181 0.1224743
-0.06932279 0.3364864 -0.03850386 0.050164737 -0.16429564 0.13580349 0.118173555 -0.09264014
0.22285861 0.035669602 -0.021015171 -0.16312145 -0.036613222 -0.1330792 -0.013743799 -0.15244663
0.24243395 -0.4339266 0.13632724 0.26186672 0.049323086 -0.19453876 0.08049977 -0.17226796
-0.079624124 0.08723365 0.47816753 0.05386343 0.06441855 -0.10429907 0.043694336 0.02241665
-0.016020628 -0.0066991607 -0.046701465 -0.15961744 0.018997466 0.10022734 -0.1759835 0.39564607
0.18707427 0.013971173 0.11057172 -0.054841164 -0.023692282 0.24138667 -0.034487925 -0.23680738
0.45214272 -0.06448481 0.12886816 -0.16178848 0.111985505 -0.219292 -0.08161273 -0.054661427
0.122245185 -0.0034624613 -0.021608815 0.0041241758 0.1835003 0.008651115 0.013064149 0.24409495
-0.37184775 0.2915939 0.30617875 0.10585494 -0.1553891 0.26227662 -0.10891469 0.087021016
0.23715192 -0.26735336 0.0035554967 -0.008073429 0.04700917 -0.22357391 0.068316214 -0.15091851
0.0021503577 0.17880231 0.15179947 -0.04321449 -0.042969365 0.15704663 -0.17619298 -0.22597715

model.fc2.weight f4 [84, 120]
00000000: 0156 3abb 20e6 c3bc 27b8 893d 4e79 03be
00000010: dc91 303d 9192 82bd c440 2d3e 62ec 47bc
00000020: 86ce ce3d 5a44 b33c 7a18 62bd 4c17 523d
00000030: b96a 23bd 8fac 953d 6d0a 9bbc 1784 ddbd
00000040: 33a4 b73c b712 4e3d 3e73 343e 7a24 b73d
00000050: 4268 4b3d f88a f0bc 351e 433e 88d1 bb3d
00000060: 025f c73d f5d3 ebbd 539e 04be 7d51 03be
00000070: 8013 593d a332 55bd cadc b9bd 60bd 17be
00000080: ece9 a33d b3ab 853b 4b4e 683e 0913 c03d
00000090: f7c9 2bbe 5d81 35bd ef87 52bd 2c51 0cbe
000000a0: 2439 0bbd 735f 9ebc a45c 203e 7e31 593d
000000b0: 3804 fabd 0757 083e 4d88 d8bc 5ce5 26be
000000c0: 5cbb 9bbd 149a 4f3d 4e26 4b3e b592 8e3d
000000d0: dc9d cebd 7555 4cbe d9de c53c e4f9 9e3c
000000e0: 50db abbd 168b 8a3e e439 9d3d 702c 71bc
000000f0: 8e95 babd aa5e 60bc 6741 15be 35ee 383d
00000100: fbc8 873d 8e71 a1bc 6ae3 ee3c 21e0 fabd
00000110: d232 a9bd b9b9 b2bc a0a5 29bc db6a 573e
00000120: 3960 153e 698a 21be 9b68 bbbd 2cbc 1fbe
00000130: 750a bcbb 6e90 c8bd 2c38 7dbd 0cd4 debd
00000140: f84c 043e 0253 8c3d 1eb2 abbd 5789 eebd
00000150: 2aac 913d 45e6 9c3c b5ff 0abe 8a8a 44be
00000160: 4364 3ebd 4054 433e 4243 69bd 91aa b3bd
00000170: cb41 3bbe 0446 34be 1c5f febc 335d fdbc
00000180: 63d9 08be ec7b c8bb 3ba8 0fbe ac4d 7dbd
00000190: b5b0 29bc bc11 073e ecfc bebc 7b45 803e
000001a0: 9c7f 4f3d b420 13bd bf98 503e 9f44 57bd
000001b0: 38d3 883d 1b20 1abc f6fe 9dbd d2e2 a13d
000001c0: 48df 05bd 894c bbbd b21e c03d c318 17bd
000001d0: 0236 94bd a73d 383d b2d0 29be 2cd3 373a
000001e0: b856 443d a550 2a3e df12 2abd c557 88bd
000001f0: 4f32 4fbd f430 073c d923 79bc ecad 2d3e
00000200: ff79 54bd 7a50 b7bc 026c 1e3e 8591 bdbd
00000210: 9754 aebd b2b6 f6bb c536 743d ea1a a2bc
00000220: 86d8 62bc 268b 5b3d 0ecf 51bd 7569 3dbc
00000230: 9994 083e bcaa 62bc 3012 eebd 4893 7b3d
00000240: 50da ec3c 920b 2dbe a73e fabd 439f 443d
00000250: 3063 e43d e0a4 03be 6fc4 bb3d 3a7d 2f3d
00000260: 22f8 933d 0f30 b53c 4557 23be 8622 a23c
00000270: d0cc 173d 71a2 003b c099 cabd 77e1 bcbd
00000280: e0b4 04bc 6f1d 10bd 1100 31bd aef4 aabc
00000290: db55 27bd 2143 0ebe e903 1dbc 15f5 66bc
000002a0: 5885 a2bd be61 983d 94ac 953d 082c bbbd
000002b0: 268b 3bbe 1d65 95bd 5781 b43b 7218 c63d
000002c0: a56d a9bd 33c0 3c3c 770b 2c3c 4737 ddbb
000002d0: 6654 bb3d 96aa 903d 2007 d4bc 81f9 02be
000002e0: 39a6 853d c0b1 493d 6576 213e b2b0 c9bd
000002f0: 2448 0b3c 9d3e a63d 9bb2 00be a661 a0bd
00000300: 13ee 843d bcc7 6dbe cba9 2e3d b58e 583d
00000310: 99ac 1dbd 64e4 373c 1ba3 743d 5daa 77be
00000320: be9a 39be 1a17 3c3d 5c18 39bd a376 f2bd
00000330: 7de4 e9bd 3c66 16bd a0fe ca3d 381a f73d
00000340: 5462 613e 6da9 e33d e3c0 cfbb ab89 6e3d
00000350: b92d f5bd 8495 f73d 9966 b03c 57c9 fcbd
00000360: 540f f43d 589e ba3d e97c c03d 5b94 06be
00000370: c4e5 e83c 8c5d 203e 6586 e33c c66b 06bd
00000380: b338 c63c 6842 623e 5127 2cbe f551 2e3d
00000390: 00c9 06be 6715 2a3e 645b 99bd 4537 84bd
000003a0: 785e 833d aedf a23d 2340 a4bd 96a3 2fbd
000003b0: 6226 16bc 48a0 313d c678 d83c bc1d 943c
000003c0: 353f bb3d 81d7 2bbe 0f49 22be 1843 89be
000003d0: f5b7 40bb 4093 52bd f232 073d 8f05 6cbc
000003e0: 702a f83c 225d a9bd 5aef 3bbd 0ac8 b43d
000003f0: 29d9 1f3e 312a b73d b841 ea3c e728 5f3e
-0.002843261 -0.023913443 0.067245774 -0.12839243 0.043107852 -0.063756116 0.16919237 -0.012202354
0.10097985 0.021883179 -0.055199124 0.05129175 -0.0398967 0.073083036 -0.01892587 -0.1081621
0.022417163 0.050310817 0.17622086 0.08942504 0.049659975 -0.02936314 0.19054492 0.09170824
0.09734918 -0.11515037 -0.12951021 -0.12824054 0.052997112 -0.052050244 -0.09075315 -0.14818335
0.080036014 0.004079306 0.22686116 0.09378631 -0.16776262 -0.044312824 -0.051399168 -0.1370284
-0.03399004 -0.019332623 0.1566034 0.053025715 -0.12207836 0.13314448 -0.02643218 -0.16298431
-0.07604095 0.05068405 0.19838831 0.06961576 -0.10088703 -0.19954474 0.024154114 0.019406267
-0.0839144 0.2705924 0.076770574 -0.014720067 -0.091105565 -0.013694445 -0.1457573 0.045149047
0.06630131 -0.019707467 0.029161174 -0.122497804 -0.08261646 -0.021817075 -0.0103544295 0.21036856
0.14587487 -0.15775456 -0.09150811 -0.15599126 -0.0057385513 -0.09793173 -0.061821148 -0.108802885
0.12919986 0.0685177 -0.083835825 -0.11647289 0.07112916 0.01915277 -0.13574107 -0.19193473
-0.046482336 0.19075108 -0.056948908 -0.08772767 -0.18286817 -0.17604834 -0.031051211 -0.03092823
-0.13364176 -0.0061182883 -0.14029019 -0.06184165 -0.010357072 0.13190359 -0.023313962 0.2505301
0.050658807 -0.03591986 0.20370768 -0.052555677 0.06680912 -0.009407069 -0.077146456 0.07904591
-0.03268364 -0.09145457 0.09380855 -0.03688885 -0.07236864 0.04498067 -0.16583517 0.0007012363
0.047934264 0.16632326 -0.041521903 -0.06657366 -0.050585087 0.008251417 -0.015206301 0.16960877
-0.051874157 -0.022377241 0.15470889 -0.09256271 -0.08512228 -0.007529103 0.059622545 -0.019788224
-0.0138455685 0.0535995 -0.051222853 -0.011560787 0.13337936 -0.013834652 -0.11624563 0.061419755
0.028912693 -0.16898945 -0.12218981 0.048003446 0.11151731 -0.12855864 0.09168326 0.042844035
0.07225062 0.022117643 -0.1595126 0.019791853 0.03706056 0.0019628073 -0.09892607 -0.092226915
-0.008099765 -0.03518432 -0.043212954 -0.020868625 -0.040853363 -0.13892795 -0.009583452 -0.014096518
-0.079355896 0.07440518 0.07308307 -0.09139258 -0.183148 -0.072946765 0.0055085826 0.09672631
-0.08272866 0.011520433 0.01050078 -0.0067509743 0.09146957 0.07063787 -0.025882304 -0.1279049
0.06525845 0.04924178 0.1576782 -0.09848155 0.008501086 0.08117411 -0.12568133 -0.07831125
0.064907216 -0.23220724 0.042642396 0.05287047 -0.03849468 0.011223886 0.059725862 -0.24186082
-0.18125436 0.04592047 -0.045189247 -0.118390344 -0.11420534 -0.036718592 0.09911847 0.12065548
0.22010165 0.111163 -0.0063401326 0.05823676 -0.119716115 0.12089065 0.021533297 -0.1234309
0.11916986 0.09112233 0.09398825 -0.1314253 0.028429873 0.15660685 0.027774045 -0.032817625
0.024196958 0.22095644 -0.16811873 0.04255863 -0.13162613 0.16609727 -0.074881345 -0.06455854
0.06414503 0.0795282 -0.080200456 -0.042880617 -0.009164425 0.043365747 0.026424777 0.018080585
0.09142915 -0.16781427 -0.15848182 -0.26809 -0.0029406522 -0.05140996 0.03300757 -0.014405622
0.030293673 -0.08269717 -0.04588256 0.08827217 0.15610184 0.08943594 0.02859579 0.21792947

model.fc2.bias f4 [84]
00000000: 615b b13c e66b 51bd a9ba 173d 9761 353e
00000010: 4e03 43be 9096 7bbd d706 803e 44a5 b33d
00000020: 4c90 203f a622 c33c 75c4 debb f74f 42be
00000030: 4fff 02be aee9 473e 5131 12be 4aae cebd
00000040: adb4 af3d 961f c5bd 2bfe dc3e 48ec 33bc
00000050: c297 4f3d c441 fe3d abe3 a73d d1ca 34bd
00000060: a0f1 8a3e eddf 343e 97ef 57be 51c3 0e3e
00000070: b662 db3e 474c d63d dbaf ae3e 0132 d23d
00000080: d7f1 2e3f 8b39 003e 6826 d7bd bd94 5b3e
00000090: 3dc9 d5be 2535 f8bc f791 19be 1a8d 02bd
000000a0: c497 15be 943b afbc 8dba 81be f65b 113e
000000b0: 7c9f 1e3e 67f9 593d dca6 113e ac8f 1fbe
000000c0: 233d 6cbd d808 1bbd 5e50 e13e c0c0 843d
000000d0: 38f9 f53e 722a 1c3d 7241 ab3d 1302 a5bd
000000e0: a2ea e23e bc73 ddbd f8e4 a1bd b5f3 dabe
000000f0: cae7 08bd 493f a33d f82b cb3d 3a42 8d3e
00000100: 3db9 073e ea09 1f3e 3788 633e 811c f73d
00000110: 7512 53be 58fc ea3d af3c 5e3f c9b0 7f3e
00000120: f7b9 943e 242e aa3e cfee 103f f689 19b8
00000130: 9ee4 2c3d 5916 a13e ee98 cd3e 12d3 833d
00000140: 1b90 253f fbbf 88bd 413a 5c3e 7c53 97bd
0.021650018 -0.05112829 0.037043247 0.17713009 -0.1904423 -0.061422884 0.25005218 0.08771756
0.6272018 0.023820233 -0.006798322 -0.18975817 -0.12792705 0.19522735 -0.14276625 -0.10091837
0.08579383 -0.09625165 0.43162665 -0.010981627 0.050681837 0.124148875 0.08197721 -0.044138733
0.2713747 0.17663546 -0.2108749 0.13941695 0.42848748 0.104637675 0.34118542 0.10263444
0.6833777 0.12521951 -0.10505372 0.21443458 -0.41755095 -0.030298779 -0.14997087 -0.031872846
-0.14608675 -0.021390714 -0.2533764 0.14195237 0.15490526 0.053216364 0.14223808 -0.1558215
-0.057675492 -0.03785023 0.44006628 0.06482077 0.480417 0.038126417 0.08362092 -0.08057036
0.44319636 -0.1081309 -0.079050004 -0.4276406 -0.033424176 0.07971055 0.09920496 0.2758959
0.13254257 0.15531126 0.2221993 0.120659836 -0.2061251 0.11473912 0.86811346 0.24969782
0.2904813 0.33238328 0.56614393 -3.660653e-05 0.042210214 0.31462362 0.4015574 0.06436743
0.6467301 -0.06677242 0.21506597 -0.0738897

model.fc3.weight f4 [10, 84]
00000000: 8554 4a3d 3148 8d3d ed0c 7d3e b2a4 8abe
00000010: b8f1 113e 3a31 0c3e 7461 343e 75a5 90bd
00000020: 51e3 f4be 97a3 813e a136 323e a365 f33d
00000030: fbff a4bd 1298 8a3e 2e03 823e eed9 a53d
00000040: 910d 853e c4e7 f13d a7bf 4ebe 558e 803d
00000050: 5bd3 6fbc 14d1 8b3e 5132 57be 63ae 4b3e
00000060: 7390 e6bd aa1c 4dbd ba24 6d3e 3ddb 5d3d
00000070: bae4 e83d 5345 b2be 7a3f b8bd 5b44 0a3e
00000080: 93c8 c1be ea68 093e 3952 02be edca a7be
00000090: 99fb e23b 79f9 4f3d 1358 17be 33bf 5ebe
000000a0: 6602 ac3c 3c34 473e 0847 7f3e 16a4 bc3d
000000b0: b63f 98be 0e61 803d b8d9 933e 3a33 173d
000000c0: 8668 8c3e e283 8e3d 5eeb 363e f7f2 d8bc
000000d0: 552c 343d efc3 59be 5f67 673e 3846 643d
000000e0: a538 4d3e 74a1 003e f99d fe3d 3981 4c3e
000000f0: 34eb 53bd f8bd 8cbe 08a4 683e 36e3 123d
00000100: 6bc7 4a3e 68f3 36be b5b1 41be 536b c43d
00000110: b8c3 5d3e 5d0e b13c 17f9 7cbe 153b 303d
00000120: fe3f 8d3e 8f83 a0bc e62a bcbe 568e b9bd
00000130: 3034 013e 0d9e 24bd 664b 64bc 717a 0c3c
00000140: 30d7 0fbe ca5c ae3c 4c71 483e fa0a 953d
00000150: 53e1 68bd bf0f 633e 5db9 ca3b 8e71 153e
00000160: b632 9f3e 2be1 8b3e 7550 a7be 7c9f 96bd
00000170: 575a 433d a715 613d c019 61bd d0fc 80bd
00000180: ce4e 643e 4791 e6ba b895 053e d345 b03d
00000190: 0ea8 35be 924a 693e df99 acbe 36a2 833d
000001a0: 6047 c53e 18b0 0e3e b363 4cbe 55d9 003e
000001b0: 9f5e adbd dd8c 0e3e 6cce 203e 4a32 fabd
000001c0: b612 21be 3bca afbd bd35 7cbe 79d0 1d3e
000001d0: 788f 943d 228b a43e 320f bd3c 014d 7a3d
000001e0: cef2 ba3d 8c56 af3e 69b3 923e a9a3 1a3e
000001f0: 8af3 a43d 1b7a 773e f171 f73d cf08 cfbd
00000200: 551e dfbd 754d 7ebd 9094 2dbd 8088 4a3d
00000210: 9b2b 93be 824d fabd 7aca 2b3c 6f22 473e
00000220: 89fd 20be 26e5 773e 5b59 863e 55b5 9ebe
00000230: db4f bebe 6830 57be 5f80 f23d ad49 823e
00000240: 0ea8 31bd 6ea8 f0bd e4c7 3ebb 498f 413e
00000250: 2750 2abe 0bd3 523e 4fa4 02bd 1e28 843d
00000260: 5105 983e 0b53 33bc a01c d2be e8ac 83bd
00000270: 33fd b53c d898 93be b483 b5bd 98bf 9c3d
00000280: c916 63bd 2c42 bebe 21f3 d63d 9d56 38be
00000290: af08 0abf 620b 0abd cdd9 7e3e 73d2 96bd
000002a0: f34c 693e 40e1 3f3d c4db 85bd 2f5a 4b3d
000002b0: b4ff 513e aa50 68be 8366 dfbc e59a 9a3d
000002c0: fb83 153d 20d1 80be 8736 e8bc 32b7 823e
000002d0: 88e7 a03e ae43 20bd 76e4 263d beb2 6dbc
000002e0: 7239 98be 03e4 883d 942a 7f3e 2038 b23d
000002f0: 6d94 60be 8997 423e d93d d7bc 40b1 2bbd
00000300: c58e 4bbd ca24 703e 04c7 183d 2868 35be
00000310: f864 96bc a320 9a3b 8719 c3bd 20c2 16be
00000320: 9c75 383e ceb0 a23c c7b0 ff3d b915 00be
00000330: 3bae 6fbd 2c09 8cbe d9a8 c53d d0e6 8ebb
00000340: da11 673d 1cb4 33be d46c 283e 7498 20be
00000350: 6c9d cdbd 7c50 8f3e 0a36 8b3e 7a60 d2bc
00000360: 677d 843e 15e0 393e 9c30 7cbe 0f05 253e
00000370: d8e2 e83d cfd9 423e 1705 45be 5ea2 b03d
00000380: b62d 2c3d 2820 7dbd cdfd 1dbe 0e3d 3bbc
00000390: 0d8d 8b3d 23dc 02be c0bd 183d c577 133e
000003a0: 9b96 003e edb0 07be 5b54 343e 84f0 24be
000003b0: 8eef b8bd ad5e 15be 04ed 8f3d 1c98 9fbe
000003c0: 5f87 a2bd c901 653d aeb7 a43e c205 03be
000003d0: 7c92 21bd 48c8 9e3e f523 4d3e 16ee 833e
000003e0: 911b 4a3e 298e 2a3e df65 6ebe aac6 04be
000003f0: 5fa9 07bd c849 743e 619d b2bc 65b7 883d
0.04939701 0.06898535 0.24711962 -0.27078778 0.14252365 0.13690653 0.176153 -0.070628084
-0.4782968 0.25320122 0.17403652 0.1188462 -0.08056637 0.27069145 0.2539305 0.080982074
0.25986913 0.11811784 -0.20190297 0.06277148 -0.014637793 0.2730795 -0.21015288 0.19890742
-0.1125802 -0.050076164 0.23158541 0.05416416 0.11371751 -0.34818515 -0.08996482 0.13502638
-0.37848338 0.13418928 -0.12726678 -0.32772008 0.0069269654 0.050775025 -0.14779691 -0.21752624
0.020997237 0.1945352 0.2492944 0.092109844 -0.29736108 0.06268512 0.28877044 0.036914088
0.27423495 0.069587484 0.17863223 -0.026483042 0.04398759 -0.21266149 0.22598027 0.05573103
0.2004114 0.1256159 0.12432475 0.1997117 -0.05173798 -0.27488685 0.22718823 0.035861216
0.19802634 -0.1786629 -0.18915446 0.09590783 0.21656692 0.021613294 -0.24704395 0.043025095
0.27587885 -0.019593982 -0.3675148 -0.090603516 0.12617564 -0.04018979 -0.013933992 0.008574114
-0.14046931 0.02128448 0.1957447 0.07277484 -0.05685551 0.22173975 0.006186648 0.14594099
0.31093377 0.27320227 -0.3267857 -0.07354638 0.047693577 0.05495229 -0.054956198 -0.0629822
0.22295687 -0.0017590903 0.13045394 0.08607068 -0.17739889 0.22782353 -0.33711144 0.06427424
0.38531017 0.13934362 -0.19959907 0.12582906 -0.08465313 0.13920923 0.15703744 -0.12216623
-0.15729794 -0.08583494 -0.24629875 0.15411557 0.07253927 0.321374 0.023078535 0.061108593
0.091283426 0.34245718 0.28652504 0.15101494 0.08054264 0.24167673 0.120822795 -0.10109102
-0.10894457 -0.062085588 -0.04237801 0.049446583 -0.28744206 -0.12221815 0.010485286 0.19446729
-0.15721716 0.24208507 0.26240048 -0.3099772 -0.371703 -0.2101456 0.11840891 0.25446835
-0.04337316 -0.117508754 -0.0029110843 0.18902315 -0.16632138 0.20588319 -0.031894978 0.06452964
0.29691556 -0.010945092 -0.41037464 -0.064294636 0.022215461 -0.28827548 -0.08863011 0.07653731
-0.05544165 -0.3715986 0.10495592 -0.1800179 -0.539195 -0.03370226 0.24887772 -0.07364359
0.2278326 0.046845675 -0.065360576 0.049646553 0.20507699 -0.22687021 -0.027270561 0.07549075
0.03650282 -0.2515955 -0.028346313 0.25530392 0.31426644 -0.039127044 0.04074522 -0.0145079475
-0.29731327 0.06684115 0.24918586 0.08702111 -0.2193162 0.19003119 -0.026274608 -0.041917086
-0.049696703 0.23451534 0.03729917 -0.17715514 -0.018358693 0.0047035976 -0.09526353 -0.1472249
0.18013614 0.019859698 0.124848895 -0.12508287 -0.05851577 -0.27350748 0.09651346 -0.004361011
0.05641351 -0.17549175 0.16447765 -0.15683156 -0.100397915 0.27991092 0.27189666 -0.02568077
0.25876924 0.18151887 -0.24627918 0.16115211 0.11371392 0.190284 -0.19240223 0.08624719
0.04203578 -0.061798245 -0.15428849 -0.011428131 0.06814013 -0.12779288 0.037290335 0.14401157
0.12557451 -0.13251086 0.17610304 -0.16107374 -0.090300664 -0.14586897 0.07027629 -0.31170738
-0.07935976 0.055909906 0.32171386 -0.12795165 -0.03944634 0.31012177 0.20033248 0.25767583
0.19737078 0.16655792 -0.23281048 -0.1296641 -0.03312051 0.2385627 -0.02180356 0.06675605

model.fc3.bias f4 [10]
00000000: 22c7 09bf 284d 76bf efce 44bd f7a9 aa3e
00000010: 742b 833f 3c64 84be be66 433f 0ea8 1fbd
00000020: a13e 4f3e 5a77 8cbe
-0.5381948 -0.9621148 -0.04804891 0.33332798 1.0247636 -0.25857723 0.7632865 -0.03897863
0.20238735 -0.27434808

momentum_buffer f4 [6, 3, 5, 5]
00000000: 7f15 c4be a463 95be b19d 97be 7092 d3be
00000010: 21fb bbbe a4ed 96be 262c f7bd 5c76 d7bd
00000020: ae83 5abe 0843 7ebe b83c abbe 8248 5fbe
00000030: 02a5 1abe 3108 40be 9ca1 6abe 331f 26bf
00000040: c56a 1abf 0a96 c3be d343 7abe ce1b 91bd
00000050: 8819 30bf 5e73 1dbf 64b0 fabe f0ca 8fbe
00000060: 9c49 98bd 3dc5 d2be 6bce acbe bf6c b4be
00000070: 6210 fcbe 7e1d f6be 98e5 7abe fd4a a6bd
00000080: 78c0 8fbd fc86 40be 4520 8ebe 73e3 5cbe
00000090: 3cd1 a4bd d0b7 433c ae8f 1ebd 03c6 16be
000000a0: 65e3 f1be 4f78 ccbe 095e fdbd 2246 f4bb
000000b0: a8f8 c13d 6be5 f5be f1c4 c8be e719 66be
000000c0: 0075 55bc e5d7 303e c492 7ebe 860d 49be
000000d0: e3fc 59be 906c 8abe aef0 6dbe 0360 f5bc
000000e0: 716a ca3d 180e a53d 7058 86bb 1dd2 b8bd
000000f0: bbe2 843d 376e 123e 8253 2d3e 1d67 d63d
00000100: 66de f5bb 8ec9 30be 6921 19be 5fd1 753d
00000110: bc68 283e 74be 873e f6e2 64be de72 1abe
00000120: 805f a9b9 48aa 4b3e b13f bf3e 8725 d73d
00000130: 53d9 0d3e cec8 1b3e 6ace 783e 40d9 803e
00000140: c83c db3d 5675 a83d f6b6 073e 2fee 613e
00000150: 3643 593e 8e6c c33d e08e ca3d 3cf0 0b3e
00000160: 3e7e 0a3e e399 0f3e 9a95 223d 4384 203e
00000170: 20ea 143e 9ea4 8c3d c2d6 c83d 9096 203d
00000180: bcc3 b53d 57c1 f23c 5097 7abd 4949 38bd
00000190: d087 023d 6291 5b3d 4c68 a03d 081c 423e
000001a0: f05d 683e be06 a63b 4083 383b 0fe7 d23d
000001b0: 73f8 623e fbf9 693e 0022 b338 3661 3b3d
000001c0: 2957 1c3e d460 3b3e e48a 473e 4a68 86bc
000001d0: ea0a 163e ca64 423e 20f6 173e 649d 443e
000001e0: 98c0 d53c 5d96 f63d ae31 c53d b28e 3f3d
000001f0: bf4e a53d db0e 143e e4ce 263e 625f 2b3e
00000200: b0a3 8b3e e3d2 903e f185 ed3d 0ae6 043e
00000210: fc9c 5d3e ddae a53e f102 9b3e a370 aa3d
00000220: 9831 1e3e cfcf 893e 160e 953e abdc 8e3e
00000230: 2a97 5b3d b92a 663e 8236 933e 1622 7d3e
00000240: 087d 873e 9084 c83d 130e 463e a81b 453e
00000250: 5059 143e fc96 323e b1a1 983e fe94 813e
00000260: 021a 113e 501b f73d 01fe 4b3e 8879 903e
00000270: c2c8 443e 5e57 353e 7182 7e3e 86a4 943e
00000280: 2f44 b13e 7a3c 7b3e 61d5 673e 8aab 943e
00000290: 8b61 a63e 2f65 db3e 3a44 d83e 3103 ca3e
000002a0: 7c55 ea3e 3d10 c63e 0616 d83e 8350 0d3f
000002b0: 236f 063f 6865 003f cf5c c23e 8425 5a3e
000002c0: e5ad 163e a067 92ba d5d8 1ebd 5ab8 f43c
000002d0: d956 773e 6960 043e c618 5a3d bc3d 9b3d
000002e0: c6f9 b73d 023e 953e 93c5 393e cae1 ee3d
000002f0: fb17 133e 2dc9 1f3e 8238 a53e fd62 9c3e
00000300: 293f 733e f67e 933e c6e5 753e e02a 943e
00000310: 2a78 c43e 5735 a13e 14f9 983e 5ef4 5a3e
00000320: d2cb da3d f23b ff3c 0208 09be 2ab1 37be
00000330: c05f 08be 14af e23d f463 253c 54ee a1bd
00000340: ccec 57bd 7c34 00bd bbbf 203e 3014 9a3d
00000350: dda5 1f3c 6ae2 203d 683b 8a3d afba 373e
00000360: 62cb 3c3e 8e02 073e ecd4 3f3e 8e93 063e
00000370: 1776 033e 0452 6f3e b4f9 4d3e 10dc 623e
00000380: b47a 113e 3de5 443c 727d 2c3e 0844 263e
00000390: ed7d 133e b0c5 163e 2438 da3d b5b2 843e
000003a0: 5dd9 6a3e 19b3 673e 59c1 293e 78bc d03d
000003b0: 319e 2e3e 1f78 453e bc63 523e 1278 cb3d
000003c0: 7f2b 693d 7ecc 433d 641a 363d 35b6 1f3e
000003d0: a836 ce3d c250 073e 344c 283e 76db 0f3e
000003e0: ea6a 6c3e c38e 233e 7e64 a33c d6d8 2d3e
000003f0: b09b 213e feac c43d fcfd c23d d73f d13d
-0.3829765 -0.29177582 -0.29612496 -0.4132266 -0.36715034 -0.2947818 -0.120689675 -0.10520622
-0.21339294 -0.24830258 -0.33444762 -0.21805003 -0.15102008 -0.18753125 -0.22913212 -0.64891356
-0.6031917 -0.38200408 -0.24439935 -0.070853814 -0.6878896 -0.6150416 -0.489627 -0.28084517
-0.07435915 -0.41166106 -0.33751234 -0.35239217 -0.4923125 -0.48069376 -0.24501646 -0.08119772
-0.070191324 -0.18801492 -0.27758995 -0.2157114 -0.08047721 0.01194568 -0.038711242 -0.14723973
-0.472438 -0.39935538 -0.123714514 -0.0074546495 0.094712555 -0.48026595 -0.39212754 -0.22470818
-0.013028383 0.17269857 -0.24860674 -0.19634065 -0.21287875 -0.27035952 -0.23236343 -0.029953009
0.09883583 0.08059329 -0.004099898 -0.09024451 0.06488558 0.14299856 0.16926387 0.10468886
-0.0075033186 -0.17264387 -0.14954151 0.060014125 0.16446203 0.26512492 -0.22352204 -0.15082881
-0.00032305345 0.19889176 0.3735328 0.10505205 0.13852434 0.1521332 0.2429749 0.2516575
0.107049525 0.08225505 0.13253388 0.22063516 0.21217045 0.095421895 0.098905325 0.13665861
0.1352472 0.14023547 0.039693452 0.15675454 0.14542437 0.06867336 0.09806587 0.039206088
0.08875224 0.029633207 -0.06117946 -0.044991765 0.031867802 0.053605445 0.07832393 0.18956006
0.22692084 0.0050667217 0.0028154403 0.10297977 0.22165088 0.22849266 8.541718e-05 0.045747004
0.15267624 0.18298656 0.19486576 -0.01640715 0.14652601 0.1898376 0.14839983 0.19200665
0.026092812 0.12040398 0.09628616 0.046766944 0.0807166 0.14458792 0.1628986 0.16735604
0.2727332 0.28285894 0.11597813 0.12978378 0.21641916 0.32359973 0.30275682 0.08322265
0.15448606 0.26916358 0.2911231 0.2790273 0.05361096 0.22477235 0.28752524 0.24720034
0.2646258 0.09790909 0.19341306 0.19248831 0.14487195 0.17440408 0.2981086 0.25308985
0.14170077 0.12065756 0.19921114 0.2821772 0.19217208 0.17709109 0.24854447 0.2903177
0.34622332 0.24534789 0.22639991 0.29037124 0.32496294 0.42850634 0.42239553 0.3945556
0.45768344 0.38684264 0.42204303 0.55200976 0.5251333 0.50154734 0.37961432 0.21303374
0.14714773 -0.0011169799 -0.038781006 0.029873062 0.24154224 0.12927403 0.053246282 0.07580134
0.089831874 0.2914887 0.18141775 0.116641596 0.14364617 0.15604086 0.32269675 0.30544272
0.23754562 0.288078 0.24013433 0.2893896 0.38372928 0.31486008 0.29877532 0.21382281
0.10683407 0.031156514 -0.13381961 -0.17938676 -0.13317776 0.1106855 0.010094631 -0.079067856
-0.05271606 -0.031300053 0.1569814 0.07523382 0.009744135 0.039278425 0.06749612 0.17942308
0.1843696 0.13184568 0.18733567 0.13142225 0.12838016 0.2337113 0.20114785 0.2215426
0.14206964 0.012017545 0.16844729 0.1623689 0.14403506 0.1472385 0.10655239 0.25917593
0.2293448 0.22626914 0.16577663 0.101921976 0.17052533 0.19284104 0.20545858 0.09935011
0.056926247 0.04780244 0.04445876 0.1559685 0.100690186 0.132144 0.16435319 0.14048561
0.2308766 0.15972428 0.01994538 0.16977248 0.15782046 0.09603308 0.095211 0.102172546

momentum_buffer f4 [6]
00000000: 146d 17be 7fb4 d83e f8df a0be 8a39 c33d
00000010: 9274 fb3e 4e37 e4be
-0.14787704 0.42325208 -0.31420875 0.09532459 0.49112374 -0.44573444

momentum_buffer f4 [16, 6, 5, 5]
00000000: 18cb d13b d6fc 20be 9219 4e3e 4fc9 003e
00000010: 07e8 193e 6f38 cc3d 3ddb adbd 0c3d 8e3e
00000020: 9511 a5bb 404a 903d ccf0 90bc df5f 503e
00000030: 9e13 493e 0418 c73c 983a 74bb eaf4 f7bd
00000040: f670 753e e47d 223e 6d4b 063e 238c 563c
00000050: 2b6b 2fbe da93 223d f394 9b3e bf93 3f3e
00000060: c05c a43d 039d 8fbc e4cc 9abd 771d 01be
00000070: 1bcb 21be 083e 0abd 58ae 7d3a e0e8 3dbe
00000080: f440 0fbe ce5f 9d3c 51c2 853d 44aa 62bd
00000090: 3b4f aabd 486f 49bb f23e 9a3d b710 a03c
000000a0: 1518 493d 473c c03c 4490 9ebc a3aa 413d
000000b0: 584e 0b3e 9cb6 bd3d 75e3 afbc 145c 50bd
000000c0: 5ea2 6c3d 8c56 1b3e f407 16bd adec d13d
000000d0: a818 2a3e 4882 003e ad77 6c3d 1f63 8d3d
000000e0: b020 a839 33cb 07be c441 9fbe 241e 6dbe
000000f0: 1039 86bd acc2 a3bd 48f1 f2bc dc94 953b
00000100: 8a8c e0bd ca72 1a3d 62da 8cbd a06c e6bd
00000110: 30c4 61be 5826 2dbd ce09 1bbd f4d9 183d
00000120: a8e5 3cbd da30 743d 768c 873b b7c4 58bd
00000130: 747e 6e3d f76d 583d cfba 923d 6ab1 613d
00000140: d1d7 a7bc b08d 943d 81ee 1f3c 4bc0 1dbd
00000150: 37bc 77bd 3075 c0bc 2a40 203d 724d 99bd
00000160: 5e51 e2bd b515 ddbd ce4a d33c 7770 443c
00000170: c502 b8bd e66c 02be 24d1 10bd ae25 9e3c
00000180: 16e6 fc3c 4810 81bd 8334 febd d645 fbbc
00000190: 5e83 da3d 227d a83d 9e53 063b cbf8 cebd
000001a0: 65d8 09bd e32b 093e ae4f 8d3d f04f 023e
000001b0: b1a1 143e 01cc 313e bb76 1d3e 8822 af3d
000001c0: 88ee d33d e325 813d 8031 063e cc11 953d
000001d0: f695 c53d df05 b43d ede1 463d ae05 87bd
000001e0: a85b bfbc f0ec 28ba 82a7 503c db40 23bd
000001f0: 2625 91bd 9365 b7bd 9217 15bd 7e10 36bd
00000200: bb43 79bd 6339 babd ee85 2a3c 2d01 5fbd
00000210: 8f34 28be a7fb 4bbe 0085 19be 2743 5fbd
00000220: 3e39 9fbc 68ce b8bd bce7 9abd 608f 96bd
00000230: 87dd 6dbd a15f 95bc b3c0 bebd d0f8 47bd
00000240: eb8d 2d3c e60f 943d 2beb 903d 48e2 20bd
00000250: 6281 96bd 78f3 debb 21f3 44be 684d 91bb
00000260: 948f 33be be78 3a3d 26e6 ddbc 06da 9a3c
00000270: d171 293b 10f2 26be 60d8 6fbd 7496 bebd
00000280: a289 9e3d 2ea1 163d 0cd0 62bc 9887 6fbc
00000290: de24 68be 187e 8f3d 2734 c93d 0a46 463e
000002a0: f5dc b83d dc6f 0fbe 775b 5b3c 0a06 5dbd
000002b0: faf8 0f3e 289f a63b e841 b7bd 8682 bd3b
000002c0: 3fad 96bd ccb6 23bd 656f 08bd 600b d43c
000002d0: 3280 13be 48ea 53be eef2 e8bc ac3e 263b
000002e0: 65aa 783c 844a 93be a861 86bd b9b0 aa3c
000002f0: e415 da3d 41ac 14bd ca48 3cbe 0b40 33bd
00000300: fd59 1c3d 2e2c 943d ab70 083d 2070 86bd
00000310: a20b 663d 008d 6ab9 c04a 883c ec17 9bbd
00000320: 3785 f4bd aa73 8bbd cf94 0cbd b827 8dbd
00000330: de56 19bd 49b4 1a3e bba6 fc3d df9e 0c3e
00000340: 3ab6 e7bc c3f3 69bd 9043 41bd 26d6 2fbd
00000350: e8d9 09bc 5be2 ae3d 9827 8ebd 00dc 0e3d
00000360: b2b8 36bd 5a59 91bc e83b 3dba bea4 853d
00000370: 4eff 123d 4ca3 493d 4c6a f23c 140d a9bc
00000380: 0687 4ebd 2cf0 c5bd c246 debd 828c c6bd
00000390: 1df0 23bd f61f 1c3c 8ef3 893c ec24 093d
000003a0: d3e2 863c 9648 2cbc 6803 193b 228c e73d
000003b0: 7cd9 7e3d fa3e 093d 8e65 483c 0872 5d3d
000003c0: 9659 9d3d 3859 193b e16b 9ebc c375 4fbd
000003d0: 46f4 ac3c 4814 03bc ff20 07bd fe04 b7bd
000003e0: 70eb e4bd f0fb 5fbd 2ea7 cd3d 073d b73c
000003f0: 9af9 3b3c 4c09 3d3d d845 523c b940 1fbe
0.0064023845 -0.1572145 0.20126942 0.12576793 0.15029918 0.09971701 -0.08489082 0.2778095
-0.0050374963 0.07045412 -0.017692946 0.20349072 0.1963639 0.024303444 -0.003726637 -0.121072605
0.23968872 0.15868336 0.1311471 0.013094935 -0.17130725 0.039691783 0.30387077 0.18708704
0.08025503 -0.017530924 -0.07558611 -0.12608896 -0.15800135 -0.033750564 0.00096771633 -0.18545866
-0.13989621 0.019210722 0.065312035 -0.05533816 -0.08315893 -0.0030736495 0.07531537 0.01953922
0.049095232 0.023466242 -0.0193559 0.047281872 0.13604105 0.092633456 -0.021470765 -0.050869063
0.057772033 0.15169734 -0.03662868 0.102502204 0.16610968 0.12549698 0.05773132 0.069036715
0.0003206781 -0.13261108 -0.31104863 -0.23156029 -0.065538526 -0.07996115 -0.029656067 0.0045648646
-0.10964306 0.037707128 -0.06877591 -0.11251187 -0.22047496 -0.042272896 -0.037851147 0.03731723
-0.046117455 0.0596169 0.0041366173 -0.052921977 0.058226064 0.052839246 0.07164537 0.055100836
-0.020488651 0.07253587 0.009761454 -0.038513463 -0.06048223 -0.02349338 0.03912369 -0.07485475
-0.11050676 -0.10795156 0.025792506 0.011989704 -0.08984903 -0.12736854 -0.035355702 0.019305076
0.030871432 -0.063019335 -0.124123596 -0.030672949 0.106695876 0.08226992 0.0020496617 -0.10106047
-0.033653636 0.13395648 0.06899963 0.12725806 0.14514805 0.17362978 0.15377323 0.08551508
0.103482306 0.063060544 0.1310482 0.07278785 0.096477434 0.08790182 0.048555303 -0.0659288
-0.023359135 -0.0006443998 0.0127352495 -0.039856773 -0.070871636 -0.089549206 -0.03639943 -0.044449322
-0.06085561 -0.09092977 0.010407908 -0.05444448 -0.164263 -0.19920217 -0.14992142 -0.0545074
-0.019436475 -0.09023744 -0.07563731 -0.07351565 -0.058072593 -0.018234076 -0.09314098 -0.04882127
0.010592918 0.07229595 0.07076105 -0.0392783 -0.073488966 -0.006803926 -0.19233371 -0.0044342764
-0.1753524 0.045525305 -0.027087282 0.01890279 0.0025855193 -0.16303277 -0.05855596 -0.093060404
0.07741095 0.036774807 -0.013843548 -0.01461973 -0.22670314 0.07006472 0.098244004 0.19362655
0.09026519 -0.14007515 0.013388506 -0.053960837 0.14059821 0.005084891 -0.089481175 0.005783382
-0.07357263 -0.03996925 -0.03330936 0.02588433 -0.14404371 -0.2069484 -0.02843615 0.0025366945
0.015177344 -0.28767788 -0.06561595 0.020836221 0.106487066 -0.036297087 -0.18387142 -0.043762248
0.038171757 0.07234989 0.033310574 -0.06564355 0.056163438 -0.00022368506 0.016637206 -0.07572922
-0.11939471 -0.068091705 -0.034321602 -0.068923414 -0.03743636 0.15107836 0.12336489 0.1373248
-0.028285135 -0.057117235 -0.047183573 -0.042928837 -0.008413769 0.08539268 -0.06941146 0.034877777
-0.044609733 -0.017742801 -0.00072187046 0.06525563 0.03588801 0.049227998 0.029591702 -0.020636119
-0.050421737 -0.0966495 -0.1085334 -0.096947685 -0.04002391 0.009529104 0.016839769 0.033482477
0.01646558 -0.010515353 0.0023347978 0.11306025 0.062219128 0.033507325 0.012231244 0.054063827
0.07683103 0.0023399126 -0.01933855 -0.050649416 0.021112572 -0.008000441 -0.032990452 -0.08936499
-0.11177719 -0.054683626 0.100416526 0.022367967 0.011473084 0.046151444 0.012834035 -0.15552033

momentum_buffer f4 [16]
00000000: a0f7 a83b e673 f3bd 27ad 27bd f81a 8bbd
00000010: e4e7 203e fbaa 7b3e e2d7 12be 8e5f 89bd
00000020: 9c51 d23b 334e 17be 06e5 733d bc8f 5a3d
00000030: eb69 60be 16de c3bd c283 673e 10d5 eebd
0.0051564723 -0.1188734 -0.040936615 -0.06792253 0.15713459 0.24576943 -0.14340165 -0.06707679
0.00641842 -0.14775924 0.059544586 0.053359732 -0.21915404 -0.09563844 0.22608855 -0.11661732
